CIFAR10 Classification/cifar_net.pth (torch, 250887 bytes, 10 tensors)

conv1.weight f4 [6, 3, 5, 5]
00000000: c86f 8f3e 76ea 2d3c e409 a0be 0ada d4bd
00000010: 1bd3 c0bc 5793 3d3d d559 8bbe febe 96be
00000020: 9932 4dbe 8c8b 4bbd 73b4 9cbe c244 44be
00000030: 55c0 2cbd 66eb 953d 4a04 b93a a642 26be
00000040: 6b67 873d 985d 223e d7ec eabb e177 bcbd
00000050: 83b5 c33d d627 723e 7a40 433e 1a6f 873e
00000060: 5e2c ba3d eeea 463e 0c1c 84bd ae53 48be
00000070: 6b5a 8ebe 46bd f6bd 31d3 87bc 2c8f aebe
00000080: fe1d 96be d310 e6bd b12a f1bb 9502 32be
00000090: c14c 4bbe 9d75 5e3c d1d4 283e 33ca 1e3e
000000a0: bf77 aebd 378c 3a3e 2d3c 143e 4b2e 133e
000000b0: eb60 95bd 4866 3c3d 6921 1b3e b6c6 b23e
000000c0: b298 043e a0dc f33d 72ea 233e 3c66 2abd
000000d0: f5f6 70be a6d6 e93c b702 9c3d 250a a93d
000000e0: 45cc 97be 370b 2fbe ea94 b63c 5ab5 3b3e
000000f0: 9ca8 30be 347e 2fbe 822d cf3d 6274 b23d
00000100: 7a34 853e 27f5 69be 434c 1abd e3b5 793e
00000110: 2203 393d bc29 ba3d 9909 6cbd 76e2 a43d
00000120: efbf 8d3d 8eb8 0cbd b9ad d83c eb6a b43c
00000130: 5569 05bc b8d2 46bd 49ce 853c ec1a acbd
00000140: d812 54bd 8bc9 93bd c3a8 6cbd 9970 28be
00000150: 7967 1ebe ec21 96be c2fd 0dbe 65cf 36be
00000160: b5ff 0cbe f73f 99be 436d 66be 2381 80be
00000170: d3bc fdbd 48a8 06be 0fd3 9fbe 31b7 28bd
00000180: 01d4 45bd 42ff 4fbe bcf3 57be 96ed 71be
00000190: 600a 5dbd 60b5 d0bd f4af 253b 3a7c 08be
000001a0: f35e 66bd 447d 2ebd 46af a0bc 232e d73b
000001b0: d3dd 883d da1c 563d 7fca b8bc 4314 ffbb
000001c0: f071 37bd 3f53 1b3c 008e 113d a8eb 853d
000001d0: d50f 073e 5e5e 79bc caa1 4e3c 84de 9f3d
000001e0: 2514 363d ade0 353d 17a9 313e 863f 523d
000001f0: db26 e83c b9ed e43d 0523 883e e9be 2e3e
00000200: 3818 4d3e eff5 013e 0ac6 873d 2686 4a3e
00000210: bab4 8c3e 3fbb 5c3e 2f4a f83d 0d15 df3d
00000220: 0ade 683e 1847 373e f96f de3d 1793 eb3c
00000230: 29ae 8a3d 29bf 3f3e 15b1 743e 1c5f 363e
00000240: 0cf2 643e d988 073e 42e6 923e 6775 a43e
00000250: 54f5 413e 87ac 4ebd 09aa b83d 6e04 353e
00000260: 1b00 cabc 50d6 24be 96d0 aebb df36 4f3e
00000270: 733d 133e ca67 1cbe 607b b3be b052 cf3d
00000280: 89b4 9d3e 823c e03d dcb4 36be bbc0 85be
00000290: fccf 6f3d 87cc 813d 8284 5f3e 3580 89be
000002a0: 1d33 c5bd e034 cc3d edd8 003e ee2b 823c
000002b0: 4732 64bd 757d 06be ecb5 af3d 1ac4 5a3e
000002c0: c83f f43d 36f7 fdbd f95d 7ebe c036 6c3d
000002d0: deb7 9a3e f2f7 483e b705 84bd 49f9 87be
000002e0: bc1a 7cbd 1e7d 5e3e 55ed 9d3e 4dde 87be
000002f0: 7b9a 86be fbed cd3d 0b77 303e f41e 1f3e
00000300: ab48 90be 0a45 0abe eb6d c03c 9dc6 103e
00000310: 1331 acba 7bbb 83bd d6c4 d0bd f446 3c3e
00000320: 5b05 003e aa50 d33d 616a 9cbd 359d 66be
00000330: d8ae 89bd b39e 4c3e 5fd6 8e3e e61a 54bd
00000340: c68d b5be 317b 44bd 9d20 b03e db4f 723e
00000350: 8e00 2abe 903f 84be 3a49 3cbd c0c4 9d3e
00000360: 122d 243e 4602 18be 7e25 34be b48e f73d
00000370: 1114 e73d 1d7e b03d 1e34 08bd 3909 c4bd
00000380: cc6c 4a3e 1ab6 793e 7155 1b3e cd84 84bd
00000390: edbb b2bd bf61 173e 8ae4 853e 7936 0b3f
000003a0: a943 063f 19a1 e93e 47d6 8a3e da38 973d
000003b0: 8cff 9c3e a165 543e 5d62 3b3e d8b5 083d
000003c0: e635 d8be a3d3 0bbf a211 0ebf b17a 0dbf
000003d0: 7bd9 c7be 08f4 89be 2b2a 9abe 2c1a b6be
000003e0: 4ede 9ebe 38d2 c2bd 24fb 27bb bea6 33be
000003f0: 923c a7be 32ab 86be dc90 70be 067e 703e
0.2801497 0.010614982 -0.31257546 -0.1039315 -0.023538163 0.046283092 -0.27216974 -0.2944259
-0.20038833 -0.04969363 -0.30606422 -0.19166854 -0.04217561 0.07320289 0.0014115658 -0.16236362
0.06611522 0.15856016 -0.007169347 -0.092025526 0.09556105 0.23648009 0.19067565 0.2645195
0.090904936 0.19425556 -0.06450662 -0.19563171 -0.27803358 -0.1204782 -0.016580196 -0.34093606
-0.29319757 -0.11233678 -0.0073598255 -0.17383797 -0.19853498 0.013577846 0.16487433 0.1550682
-0.085189335 0.1821755 0.1447608 0.14373128 -0.07293876 0.04599598 0.15149464 0.3491723
0.12948874 0.11907315 0.16007403 -0.041601405 -0.23531707 0.028544735 0.07617705 0.08253888
-0.29648033 -0.17094122 0.022287805 0.18330899 -0.1725182 -0.17137986 0.10116102 0.087136045
0.260166 -0.22847424 -0.037670385 0.2438579 0.045169003 0.090899915 -0.05762634 0.080510065
0.06921374 -0.034355693 0.026450025 0.022023639 -0.008142789 -0.0485408 0.016333716 -0.084035724
-0.051775783 -0.07216176 -0.05777813 -0.16449203 -0.15469159 -0.29322755 -0.13866332 -0.17852552
-0.1376942 -0.29931614 -0.22502618 -0.25098523 -0.12389531 -0.13150132 -0.31215712 -0.04119033
-0.048297886 -0.20312217 -0.21089071 -0.23625788 -0.053964972 -0.101908445 0.0025281878 -0.13328639
-0.056242894 -0.04259993 -0.019614827 0.006566779 0.066829346 0.05227361 -0.022557495 -0.007784398
-0.044786394 0.009480297 0.035535812 0.065390885 0.13189633 -0.015220253 0.012611816 0.07806113
0.044452805 0.04440372 0.17349659 0.051330112 0.02833884 0.111781545 0.26589218 0.17065014
0.2002877 0.12691472 0.0662957 0.19777736 0.27481633 0.21555804 0.121235244 0.10892687
0.22740951 0.17898214 0.10861201 0.028756661 0.067715 0.18725266 0.23895676 0.17809719
0.22357959 0.13235797 0.28691298 0.3212082 0.18941242 -0.050457504 0.09016807 0.17677471
-0.024658253 -0.16097379 -0.005334924 0.20235775 0.1437891 -0.15273967 -0.35055065 0.10123193
0.308018 0.10949041 -0.1784243 -0.26123604 0.05854796 0.063378386 0.21827891 -0.26855627
-0.0962889 0.099710226 0.1258275 0.015890088 -0.05571201 -0.13133796 0.08579621 0.2136387
0.11926228 -0.12400667 -0.24840535 0.0576694 0.30218405 0.19625834 -0.064464025 -0.26557377
-0.061548933 0.21727416 0.30845132 -0.2653679 -0.26289734 0.10055157 0.17232911 0.15539151
-0.2818044 -0.13502899 0.023489913 0.14138265 -0.0013137184 -0.064322434 -0.101937935 0.18386441
0.12502043 0.1031812 -0.07637478 -0.22520907 -0.06722802 0.19982414 0.27897927 -0.051783465
-0.35459727 -0.047969047 0.34399882 0.23663275 -0.16601774 -0.25829744 -0.04596827 0.3081417
0.16032818 -0.14844617 -0.17592427 0.12087765 0.11283124 0.08617804 -0.033252828 -0.095720716
0.19768065 0.24385872 0.15169312 -0.06470642 -0.0872725 0.14783381 0.26150924 0.54379994
0.5244699 0.4563072 0.27116606 0.073838905 0.30663717 0.20741893 0.18299241 0.033376545
-0.4222862 -0.54619807 -0.55495656 -0.5526534 -0.39033112 -0.26943994 -0.30110297 -0.35566843
-0.3102898 -0.09512752 -0.002563187 -0.17544076 -0.326634 -0.26302487 -0.2349276 0.23485574

conv1.bias f4 [6]
00000000: cda2 74bd 5e43 d93e 7f1f 20be c9dc f3be
00000010: fabd 7fbe 952b 37bd
-0.05972557 0.4243421 -0.15637015 -0.47629383 -0.24974814 -0.044719297

conv2.weight f4 [16, 6, 5, 5]
00000000: ccab 4b3e 8a7a 5c3d 8533 4dbd 6b1c c6bd
00000010: b4d9 e8bd 329d d63d ee17 af3d fd5f cbbd
00000020: a691 c4bd b2ef ec3d c1e6 35bd bd92 c7bd
00000030: 9cda a2bd 668f 0b3e d9a7 1c3e 62cb 6fbe
00000040: 6e41 a5bc 17d9 283e eb6f d0bc 0eb3 8b3a
00000050: 6216 8abd 4662 c33c ef4e 1e3e fe30 ee3a
00000060: 8e57 19bd 1437 93be 13ea 51be 7223 36be
00000070: 7393 2ebe 9c74 27be 82ae 6bbe c1a9 c1bd
00000080: ab90 39be 6551 18be 3ae2 4ebe 84b7 afbd
00000090: d3f5 2cbe 22bf 47be f773 27be a41a 33be
000000a0: 4835 38be 6f10 3ebe 52f3 b9bd f9ce 56be
000000b0: 807b 44be 500a 13be 0323 4dbe 44c1 63be
000000c0: cb2e 1abe 0171 57be f0f7 b83d 2f84 08be
000000d0: c1ba 68bd 3e10 0bbe 5c38 5a3d a64a 8d3d
000000e0: b3e3 493c 60c5 14bd f100 103e bc12 753d
000000f0: 296c b4bd 9a46 db3c 80d2 213e de41 c43d
00000100: 6909 25bc e971 1bbd e9e9 473e a19d a8bd
00000110: c9a9 bebc b1cb d1bc 0f7a 493e c663 303d
00000120: 8f21 e03d 598e 3e3d 23a3 e0bc e4fb 1d3d
00000130: b97d 4ebd 579f 183d a83a 853d 238e 093c
00000140: bfab d0bd 7c8c 6fbd f83c 3d3e 3a3d d03d
00000150: 5590 84bd 893c 2bbd cd43 593d 4a7b 423e
00000160: da6a 16bd 6c20 31be 12e4 463c 7701 213d
00000170: 0a28 1d3d 8ad5 b73d 55ae e5bd e3f6 79bd
00000180: b710 c63d c0f9 a23d 834e 253e 6039 20be
00000190: 556e 4e3e 4c4a 253c e3a9 673e 7569 183e
000001a0: 4794 7b3d 6e3a 713b 8fbd 893d 269f 6cbd
000001b0: 7db1 4c3d a09e 243e fe0f 6b3d 8ec7 1abe
000001c0: 7cef 4e3d 7912 7fbc 4362 df3d 92a4 18bd
000001d0: 7382 0dbe d65e 43bd 6691 3a3d 8b5c 743d
000001e0: 91f1 23be f83b 2f3b 88e5 03be 071f ffbc
000001f0: 069c 61bd dcb5 a23a cb3b 663c 9ce1 823c
00000200: 0be9 ccbd 2bac a0bd f9f2 a5bd 0ca7 d6bd
00000210: 1e83 01be 5512 b5bd 1279 16bd a0fc 123d
00000220: 45c6 6cbd 5e2c 16be cd59 8c3c 2464 ae3d
00000230: 2aca 0ebe 84cc 1fbe f886 8cbc efde a73d
00000240: 999f ddbc a76d f9bd 5a96 8ebd 922e 503a
00000250: 740c 18bd 22f0 333d 75f4 2a3e f959 bfbd
00000260: 6e89 1fbc 169b 153e 5a3a 883d 8553 7a3d
00000270: 4313 18be d481 823d 3802 e3bc f4cf a1bb
00000280: 2505 0cbc a740 4cbe 7ca6 493d 813c 33be
00000290: 9348 b9bd 9ae7 febc f837 26bb 905f de3d
000002a0: 334b 81bd 779a 30bd 9833 a43c 5997 eabc
000002b0: 8f2b 7cbc 32c0 1cbd cfd4 12be 9448 3dbe
000002c0: 0343 85bd e6d6 543a dbb1 9cbd 75c1 dcbd
000002d0: c4f8 fbbc bd94 5bbb 07dd cdbc 2236 db3d
000002e0: 164d 37bd 21fb b3bd 1e39 57bc 38ae a03d
000002f0: ef01 6ebd 0291 efbd 4165 31bd 919b 25bd
00000300: af16 253d de01 1b3b fca0 bdbd 2e97 77be
00000310: 2a8e 81bd db0e 0cbe 0f1f 6fbe e02a 5dbe
00000320: 63d3 e4bd b48a 05bc 4eeb a83d 3542 313d
00000330: efb0 3f3d e2b3 94be 0403 313e 0902 bf3c
00000340: 6327 223e 86a8 30bd 044e 8dbe fa97 993e
00000350: 347d e4bd c5a9 0b3e 62ea 873d 56ff 6abe
00000360: 76f1 643e 9856 05be 43f9 0c3c b99b 423d
00000370: 82d4 61be e479 40bd 92c9 49bd b9b5 aabd
00000380: a7eb 3f3c bedd e93d 1341 4b3d 4dd4 2b3c
00000390: f734 b2bd d7d9 38bd aca9 123e 2d38 893c
000003a0: 3eab 32be 72e2 55bd 6c55 1abd 53cd 4f3c
000003b0: 9a70 d43c 3227 1bbe 8adc 87bd 5028 d53c
000003c0: d634 123e 5523 a63c c37e c5bd ad33 00bd
000003d0: 39c7 65bd d5ca e6bd 238f ecbd b3f1 93bd
000003e0: 9243 42be 91df 11be 9119 3f3e 2e34 2dbe
000003f0: 0ac5 0d3e d192 c33d d56a 0e3e 4147 c53c
0.19889754 0.0538278 -0.05009796 -0.09673389 -0.113696486 0.104792014 0.08549486 -0.09930418
-0.09598093 0.11569156 -0.044409517 -0.09744785 -0.07951853 0.13628921 0.15298404 -0.23417428
-0.0201728 0.16489063 -0.025443992 0.0010658221 -0.067425504 0.023850571 0.15459798 0.001817256
-0.037437014 -0.2875296 -0.20499448 -0.17786959 -0.17048435 -0.16353077 -0.23015788 -0.09456206
-0.18121593 -0.148748 -0.20203486 -0.08579925 -0.1689065 -0.19506505 -0.16352831 -0.17490631
-0.17989075 -0.18560956 -0.09079613 -0.20977391 -0.19187737 -0.14359403 -0.20032887 -0.22241694
-0.15056913 -0.21039201 0.09031665 -0.13331674 -0.056818727 -0.13580415 0.053276405 0.06899004
0.012322354 -0.036321044 0.14062859 0.05983232 -0.088096924 0.026767064 0.15802956 0.09582876
-0.010073044 -0.03795043 0.19522823 -0.0823319 -0.02327432 -0.025609823 0.19675468 0.0430639
0.10943901 0.046522472 -0.02742154 0.0385703 -0.050412867 0.037261333 0.065053284 0.008395704
-0.10189008 -0.058483586 0.18480289 0.10167928 -0.06472842 -0.041805778 0.053043175 0.18992344
-0.036722995 -0.17297524 0.012139337 0.039308038 0.038368262 0.08976276 -0.11214892 -0.061026465
0.09671157 0.07957792 0.16143231 -0.15646887 0.20159276 0.010088515 0.226234 0.14883979
0.061420705 0.0036808508 0.067256086 -0.057768963 0.049973954 0.16076136 0.0573883 -0.15115187
0.05052136 -0.015568369 0.10907414 -0.03726632 -0.13819294 -0.047697864 0.04554882 0.05965857
-0.16010119 0.0026738625 -0.12880528 -0.031142725 -0.055080436 0.0012413817 0.014052342 0.01597672
-0.10005387 -0.078453384 -0.08102984 -0.104810804 -0.12647673 -0.08841387 -0.036736555 0.035885453
-0.057806272 -0.14665362 0.017132664 0.08515194 -0.13944307 -0.1560536 -0.017154202 0.08196818
-0.027053641 -0.12179118 -0.06962271 0.000794151 -0.03712125 0.04393018 0.16694815 -0.09343333
-0.009737356 0.14609942 0.06651755 0.061114807 -0.14851098 0.06372419 -0.027711019 -0.00493812
-0.008546148 -0.19946538 0.049231037 -0.17503549 -0.090470456 -0.031116296 -0.002536295 0.10858071
-0.06313171 -0.04311606 0.020044133 -0.028636621 -0.015391245 -0.03826923 -0.14338993 -0.18484718
-0.06506922 0.00081191806 -0.07651111 -0.107790865 -0.03075827 -0.0033505403 -0.025129808 0.107036844
-0.04475125 -0.087881334 -0.013136176 0.078457296 -0.058107313 -0.1169758 -0.043309454 -0.040431563
0.040304836 0.0023652236 -0.09259221 -0.24178764 -0.06325944 -0.13677542 -0.23351692 -0.21598387
-0.11173131 -0.008150745 0.08248006 0.04327603 0.046799596 -0.2904349 0.17286307 0.0233164
0.15835337 -0.043129466 -0.27598584 0.2999876 -0.11156693 0.1363898 0.06636502 -0.22948965
0.22357735 -0.13021314 0.0086043505 0.04751179 -0.22053722 -0.046991244 -0.049264498 -0.08335442
0.011713899 0.11419247 0.049622606 0.010487628 -0.087015085 -0.045129623 0.14322537 0.01675042
-0.17448136 -0.05221791 -0.03767912 0.01268323 0.025932599 -0.1515167 -0.06633861 0.026020199
0.14277968 0.02028052 -0.096433185 -0.031299282 -0.056098197 -0.11269156 -0.11550739 -0.07223835
-0.18971089 -0.1424544 0.18662097 -0.16914436 0.13844696 0.095494874 0.1390794 0.024081828

conv2.bias f4 [16]
00000000: ad5e e03e 326f 1a3f 9573 39bd 87e1 13be
00000010: 30e8 d5be 3cee 00bc 5137 05bf 4510 683f
00000020: c72b 02bf eccf 243e a500 bf3c aecf 23be
00000030: 1b89 b6bc 4583 4dbe 8ffd 023f f024 a6be
0.43822232 0.6032592 -0.045276243 -0.144415 -0.41778708 -0.0078692995 -0.5203753 0.90649825
-0.5084805 0.16094941 0.023315737 -0.15997192 -0.022282174 -0.20069607 0.5116815 -0.32450056

fc1.weight f4 [120, 400]
00000000: 269b 0cbd 0db4 89bd 0614 48bd 1d97 d4bc
00000010: ecfd 123c dc5c 70bd 9e15 98bb 222d 6a3c
00000020: 2e3c 403d 8347 1abc d144 b83c 9d41 a4bb
00000030: aa65 923d 4625 a43c be70 95bc fb5b 013b
00000040: 5df5 873c b091 5f3d 2ace b53d e364 563d
00000050: a165 123d 1a93 a63c c740 823d 4e32 d93c
00000060: 6bc2 893d 01f6 7f3c d725 0d3d 3d9a 54bd
00000070: e639 dd3c 0941 613c e91b 293d 2c2a a23c
00000080: 176f 7b3d c0a5 363d e3ae 6b3d ffc9 9d3d
00000090: 6351 d23c 9ece 183b 9084 1a3d cef1 2f3d
000000a0: db23 653d 8293 be3b d803 98bb c273 383d
000000b0: 3723 7a3d 5ba6 e73d 8aac 4d3d 468d ae3d
000000c0: 8445 8a3d 4fa8 973d 1877 29ba fe77 0ebd
000000d0: 1491 02bd e68e 1dbc e0f6 90bc 71e9 ecbc
000000e0: b6f2 35bd 7ef3 b9bb b127 0ebd 906d da3b
000000f0: 96f2 38bd 44f3 1a3d 0823 813d 5770 c53b
00000100: 076e b13c d80c 6c3c f834 0ebd 3444 0bbd
00000110: fea8 4dbd 7feb afbd 4c82 d5bc f15d 1abd
00000120: 7a4c 82bd 2ae2 f1bb 314a fcbc 99c7 813d
00000130: 66d8 9b3d ce2e 1dbd 0fd8 e2bc ca27 be3c
00000140: 6e06 a03d 29fd 7c3d 2af3 58bb cb5a 2cbd
00000150: d9b4 a1bc dc19 e83b 120c a3bc 7f71 6cbd
00000160: 38ec 67bd ef8b debc b06d eabc ccbf 4fbc
00000170: 9a86 57bd 9de2 3dbd 6abe 4cbd 4f22 533d
00000180: fff0 b13c ab3b 2cbd 258a 96bd da84 0cbd
00000190: 0a1a dcbb 22b5 23bd 4b8c 3e3d a52d 57ba
000001a0: a1b3 503d 81e2 6abd 000e f83c 9f9a ccbb
000001b0: 4775 393c b8c8 8d3d 98e2 4d3d 579b 28bd
000001c0: 9af7 d33c a00a 3f3d 389e 523c 90f3 c339
000001d0: f801 9bbb 86a7 72bc 6545 2b3c b721 293d
000001e0: 60dd 3a3d b92f 553d 4a21 e03c f22a d2bc
000001f0: 06cf 11bb 4ee3 35bc c4f1 3d3d f8dc 143d
00000200: c582 26bc c358 32bd 5302 d0bc 0fdf 1dbd
00000210: ac31 5f3b ea50 f8bc 0b44 cdbd d58a c5bc
00000220: a8bc 8a3c f171 14bc e845 c83c 6a35 2bbd
00000230: 0fab debd 3508 f4bd 7522 98bc 6f81 79bc
00000240: 3017 05bd 9e1f 88bd 6f2d 81bd 7609 8dbd
00000250: 71b8 a5bc 6b1b e3bd 484a b83c c766 4ebd
00000260: bec6 06bd efe9 27bd 01e8 8bbd a48e d2bc
00000270: 9e16 f1bb 2706 15bd b275 b13b 7e2a 31bd
00000280: 0697 6dbd 04b7 88bd 6f24 39bd 2b13 c2ba
00000290: 159d b2bd 9dc5 3ebb c8de cf3a 5f93 d9bc
000002a0: 9ea5 29bd 9506 08bd 17e0 a73c 114f 703c
000002b0: 7783 05bd 4f6f 843d 8902 383d c9d4 1cbc
000002c0: e1d7 41bd 5cc9 4bbd c8f2 073d 2f87 213d
000002d0: 3f60 9b3d aecf d53b 3ab7 d2bb 6c07 9d3c
000002e0: d36e e2bc 2fb2 993d 72f8 173d 7935 10bc
000002f0: 5368 e1bc a1c2 393d 59c2 31bd e04a ebbb
00000300: e2d2 93bd f102 81bd 7d97 b3bc 9889 2bbd
00000310: 6246 a3bc 1669 abbd 9e1b d1bd 133f a1bd
00000320: 60f9 a9bd 0f24 a9bc ca27 e5bc d09a 1dbd
00000330: b6dc b8bc cd13 2bbd c804 d13c 0f4c ff3b
00000340: a083 d13b 47e1 a6bc 289c a03c 66d0 0b3d
00000350: bc9a 2e3c 5f83 2dbd f801 92bd 19a6 b63b
00000360: c8b7 9abc eb9f c33c 8d2a 2fbd 3374 e8bc
00000370: 7bb2 063d 7e62 2f3d d14b 5c3d c045 9a3d
00000380: 5605 de3c 4c03 0fba f30c a9bd 10a8 c63b
00000390: 0f3c 773d 1053 ba3d 80be 96bd d667 03bd
000003a0: 0280 4d3d 62e3 723d d3ab fcbb 98b4 8abd
000003b0: 0180 9dbd 28e0 1c3d 5839 a93d 3016 833d
000003c0: 906a 80bd bd6d 77bd 4760 f03c 8f07 cc3c
000003d0: 7505 9dbc 8361 9cbc d85f d6bc 3bd3 103d
000003e0: 97ec bf3b cbdf 823c 2e0e 633a 3656 9b3c
000003f0: acf0 e63c ab6a 823c 4bf5 6a37 6b2c febc
-0.03432765 -0.06723795 -0.04884722 -0.025950963 0.0089716725 -0.058682308 -0.004641249 0.014292987
0.04693239 -0.009416464 0.022493752 -0.0050127045 0.07148297 0.020037305 -0.018242236 0.0019738663
0.01659649 0.054582298 0.08877213 0.052342307 0.035741452 0.020333815 0.063600115 0.026513245
0.067265354 0.015622617 0.034459915 -0.051904906 0.027005147 0.013748416 0.041286383 0.0197955
0.06138524 0.044591665 0.05753983 0.07704543 0.025673574 0.0023316513 0.037724078 0.042955212
0.055942398 0.005815924 -0.00463913 0.04503227 0.06106874 0.11311027 0.050213374 0.085230395
0.0675154 0.07405149 -0.0006464585 -0.034782402 -0.03187664 -0.009616589 -0.017695844 -0.028919907
-0.04442092 -0.0056747785 -0.03470582 0.006665893 -0.045153223 0.037829652 0.0630551 0.006025355
0.02165891 0.014407359 -0.034718484 -0.03400059 -0.05020999 -0.08589839 -0.026063107 -0.037687246
-0.06362243 -0.007381697 -0.030797096 0.06336898 0.07609634 -0.038374715 -0.027690915 0.023212332
0.07813726 0.06176487 -0.0033103921 -0.042078774 -0.019739555 0.007083161 -0.019903217 -0.057725426
-0.05662176 -0.027166335 -0.028616756 -0.012680005 -0.0526186 -0.046358693 -0.04998628 0.05154639
0.021721361 -0.04204909 -0.07350568 -0.034306385 -0.0067169713 -0.039967664 0.046520513 -0.00082084007
0.050952557 -0.057344917 0.030280113 -0.006244018 0.011319465 0.0692305 0.050264925 -0.04116377
0.025874902 0.046640992 0.012855105 0.00037374767 -0.0047304593 -0.0148104485 0.010453557 0.04129192
0.045621276 0.052047465 0.027359623 -0.025655244 -0.002224864 -0.011101557 0.046373144 0.036343545
-0.010163014 -0.04354168 -0.025391733 -0.038542803 0.0034056706 -0.03031202 -0.10022744 -0.024114052
0.016935661 -0.009060369 0.024447396 -0.041798986 -0.108724706 -0.11915628 -0.018571118 -0.015228613
-0.032492816 -0.066466555 -0.06307494 -0.0688657 -0.02022955 -0.11089214 0.022496358 -0.050390985
-0.03290438 -0.04099458 -0.068313606 -0.025702782 -0.0073574325 -0.03638282 0.0054156417 -0.043253414
-0.058005355 -0.066755325 -0.04520076 -0.0014806738 -0.08721367 -0.0029109486 0.0015859241 -0.02655953
-0.04141771 -0.033209402 0.020492597 0.014667288 -0.032596078 0.06466543 0.044924293 -0.009572216
-0.04732502 -0.04975258 0.03319052 0.03943556 0.07586717 0.0065250015 -0.0064305337 0.019168578
-0.027640736 0.07504689 0.03710217 -0.008801811 -0.027515566 0.04535163 -0.043398235 -0.0071805567
-0.07217957 -0.06299389 -0.021922821 -0.041879267 -0.019931022 -0.08369653 -0.10210346 -0.078733586
-0.08299518 -0.020647077 -0.027973074 -0.03847772 -0.02256618 -0.04176693 0.025514975 0.0077910493
0.0063938648 -0.020371092 0.019605711 0.03413429 0.010657009 -0.042361613 -0.07129282 0.0055739996
-0.018886462 0.023879966 -0.04276519 -0.02837572 0.032885056 0.04281854 0.05378324 0.07532835
0.027102154 -0.00054555084 -0.08254423 0.006062515 0.06036001 0.09097874 -0.07360554 -0.032081448
0.050170906 0.05929888 -0.0077109127 -0.06772727 -0.076904304 0.03829971 0.082628906 0.06400716
-0.06270325 -0.06040739 0.029342784 0.024905948 -0.019167641 -0.019089466 -0.026168749 0.035357695
0.005857061 0.015975853 0.0008661476 0.018962007 0.028190933 0.015920004 1.4004599e-05 -0.03102704

fc1.bias f4 [120]
00000000: cb09 273d e078 eabd 1836 5f3d f4db 3abe
00000010: b2d8 09bd 1938 cebc 1b4e 4a3d 9660 843d
00000020: 33e7 9abc b3a8 e13d b465 f43d 29e0 61bc
00000030: 9641 5abd fd6b cb3a e034 5f3c d3d9 0f3e
00000040: 7083 493c cd6e f83d 9399 fe3d f6e7 d53d
00000050: 7d3c 2fbd e8ca b03d db3a 993c a7a4 7bbc
00000060: a705 113d 789b b73c be50 2c3d afb9 993b
00000070: 8bc5 86bc c72b d8bc 3655 943d b114 023d
00000080: cfb6 c33d a85f 1d3e e529 a7b8 8202 e13d
00000090: 140a 023d 3364 973d fb08 dbbb c1d2 c73d
000000a0: e101 35be a9c9 023d 465d 453b 2f0b 8cb9
000000b0: eca6 c73c 7ee9 9b3d 5b6b 023e 21e7 273e
000000c0: 98c9 10bd 4fa6 acbd c255 27bc ce59 de3d
000000d0: 5a39 3b3d c44c c33d 375f 2abd a11f 0b3d
000000e0: 060c 87bd 0635 f2bc 45ff fa3d e3f4 cd3d
000000f0: a300 85bd 7fc1 553d 9d8d eabb e2a2 4c3d
00000100: 0dd9 09be 0f09 803d 9c5d f63c 62f5 6c3d
00000110: 5552 823d fb83 e53c fcf8 353e b45e 17ba
00000120: 5dbf 123e 6bda 4a3d c143 0cbc a4b0 c0bd
00000130: 7a0c 373c 1b07 073e a82d acbd 166f 32be
00000140: c71f e8bc f8ac 193e 4f4c a8bd 2f50 a83c
00000150: 452a 973d 9464 c33d c4cb ed3d cd84 80bd
00000160: 71b6 0c3d a2a3 ab3b 4e31 b93b 3cc6 c73b
00000170: 1a73 1c3e 3071 cd3c cb1a afbc da61 e43b
00000180: 87a2 a4bd a5e7 ed3d d2d5 383d 8057 88bd
00000190: 9366 2c3e 5016 e83d 4795 d5bc e46b 3b3e
000001a0: 7299 dbbd 4086 303e 8468 ce3d c80f 8bbc
000001b0: bfc9 4bbb 9c3e 28bd a921 6dbd 939a aa3d
000001c0: 75f2 fdbc c88d fe3c 6b24 853d c10c 8f3d
000001d0: 7ceb d93c 2cf7 d4bc d5ca b4bc f25c 763d
0.040780824 -0.11448836 0.054494947 -0.18247968 -0.033653922 -0.025173234 0.049390893 0.06463735
-0.018909073 0.11018505 0.11933461 -0.013786354 -0.053285204 0.0015519854 0.013623446 0.14047937
0.012299404 0.121305086 0.12431636 0.10444634 -0.042782295 0.08632451 0.018704822 -0.01535908
0.03540578 0.022413 0.04206919 0.0046913247 -0.016451618 -0.026388062 0.07242815 0.031758014
0.09556352 0.15368521 -7.970984e-05 0.109868065 0.031747892 0.07392158 -0.00668442 0.09756995
-0.17676498 0.0319306 0.003011541 -0.00026711213 0.024371587 0.076128945 0.12736265 0.16396762
-0.035348505 -0.08430158 -0.010213317 0.10856973 0.04570899 0.09536126 -0.04159471 0.03396571
-0.0659409 -0.0295663 0.1225572 0.10056474 -0.06494262 0.052186485 -0.007157995 0.049960025
-0.13461705 0.06251728 0.030073933 0.057851203 0.0636336 0.028017035 0.17770761 -0.0005774305
0.14330812 0.049524706 -0.008561076 -0.094086915 0.011172408 0.13186304 -0.08407146 -0.17425188
-0.028335465 0.15007389 -0.0821768 0.020546047 0.07381109 0.09540668 0.11611131 -0.0627533
0.034353677 0.0052380124 0.0056516295 0.0060966294 0.15278283 0.025078386 -0.02137508 0.0069696726
-0.08038812 0.11616448 0.04512579 -0.06657314 0.16836004 0.11332381 -0.026072158 0.18302876
-0.10722627 0.17238712 0.100785285 -0.016975299 -0.0031095592 -0.041075334 -0.05789343 0.08330264
-0.030999402 0.031073466 0.06501087 0.069848545 0.026601546 -0.025996767 -0.022069374 0.060147233

fc2.weight f4 [84, 120]
00000000: 7ad0 073e 6314 d9bd f196 05be 0a12 e8bc
00000010: a2ba 8a3d 7bbc b9bd a6cd b2bd 473d 36be
00000020: e6e2 393c 99cd 953c 065d d63d 1127 44bc
00000030: b713 cb3c c2f4 a6bd 7152 3b3d 60b2 203e
00000040: d064 00bd 3696 a63d a819 18bd 46d5 073d
00000050: a821 953d 2f82 ed3d 15a1 8d3d 9dcc c43d
00000060: 4066 2fbc facc ed3c 50cb 0abc 440a 243d
00000070: 8315 3dbd bb37 523d 4fee 88bd 9412 d3bd
00000080: ab19 c1bd 59ef 9a3d 6231 233d dc20 01bd
00000090: ec63 513d 05f2 5bbd 1ef4 debd 9279 39bd
000000a0: 415e 02bd 2877 613d 2672 abba 3644 ed3c
000000b0: 633c 93bc 8f7e 273d b123 ecbd 4ee5 58bd
000000c0: 9ba6 5b3c 735c 92bd 239c 88bd 17ed f13d
000000d0: 32d7 48bd 9901 debd 66ea 2abd 92a0 8f3b
000000e0: 2ed9 b9bc 10c8 893d 5491 81b9 e83d d3bd
000000f0: cb16 e9bc e10a c73c 2dfe 68bd 9b98 1b3c
00000100: 38dd d8bd 7f9e 0f3e 0f7c 293d bf80 463d
00000110: c1e7 c0bb 89f1 2a3d b74d 0f3d d5cc 9e3c
00000120: 950f 283e 095c 00be 4515 ca3c 9dd9 24be
00000130: d1d7 803d dc79 233e d22e f3bd d695 efbd
00000140: 767d 9ebd 67c9 e93c 9fa7 78bd 7b56 f9ba
00000150: 4fd4 71bd 8967 95bc c9e9 41bd 900d debd
00000160: 04f5 8a3d 5459 ad3d 2328 20bd af1e 963c
00000170: 3c4b 68bd 849c 93bd 6131 bb3c 394f adbd
00000180: 5e15 473d bad3 a23d e9d9 4bbd 13db debd
00000190: 5ab4 4dbd c63b a43d db55 ea3b 272c 933c
000001a0: c073 6dbd 3fa0 d2bd c6df 9dbd 6e47 073d
000001b0: 4cc5 efbb afa7 4bbb 0cbc 0b3d e5ec 823d
000001c0: a58b a0bd 2910 e5bc 3a2f 953d 3e01 18bd
000001d0: c893 e63b 5550 96bd 3094 2c3d d50d 4e3d
000001e0: 571f a83d a2d9 3c3d fc67 92bd 076b e23d
000001f0: 6146 8cbd b03a d8bd 9575 6cbd 68cd dbbc
00000200: a442 6a3c 2054 633d 8e62 76bd 7841 fdbc
00000210: 70a5 283d 960e 843c aa75 9ebd 34d5 d43c
00000220: dcb1 35bd 5327 9dbd ba38 b43b e351 55bd
00000230: 0c0f d9bc 78f8 42bc f2ff a03d 66dc 4a3c
00000240: 2a0e 2dbd 2044 843d 38d5 8abc c2d1 4e3d
00000250: a5b3 b23d 9dca 323b 7600 c93c 9bca 98bd
00000260: 1172 0cbd 6257 babc a2f2 ac3d b2f3 5d3c
00000270: 4b55 b439 a96b c8bd 624d 8f3a 0a64 d9bd
00000280: c072 763d 0cb5 8e3d 42bc 213d 1a5b 8e3d
00000290: b165 16bd ce63 293d a4ca 15be 6009 3dbd
000002a0: cde5 153d d13e 703d c2d1 93bd b121 ffbd
000002b0: 2918 b3bd f0f1 b0bd 5546 273e 461d 38bd
000002c0: 6d08 eebc c765 dbbb 7207 383d a566 f23b
000002d0: bd19 61bd b3c7 a73d c5f2 293c c7f8 a0bd
000002e0: c1af 6c3c 6346 ed3d e9a1 a8bd d3d1 cabd
000002f0: 44a4 933c 5987 83bc 167a e1bd c859 f33b
00000300: 64bc 9f3d 4591 4abd 91ea bc3d e3c8 593d
00000310: e7e6 133c bfd1 34bd f98c 0cbd 5cc0 2d3c
00000320: d232 8e3d 22b1 22bd d000 2fbd 8f85 1e3d
00000330: de8b d1bc 7217 b0bd de9a 02be 6e56 96bc
00000340: aebb 4fbd ab58 ffbc a02c 96bc ccda 353c
00000350: cf9a 8a3c 6f2d 633d e0bb c13b a6dd 99bd
00000360: 675c a93d 1544 f23d 6c7a 35bd 6cc1 8f3d
00000370: ed05 29bd 81f3 003d 2b21 5fbd 5473 4a3c
00000380: 09de d13d 357c 3d3d 7564 9abd 4cc4 bbbd
00000390: 0aff 7a3d c06e e73c 6a41 44bd bde8 f63c
000003a0: b4cd abbc 5475 8f3c 0a82 803d b936 30bd
000003b0: fb1f 02bc d11c 4c3d 220b 1dbe c9d4 86bd
000003c0: 1582 eabd b8eb 833d 967c df3d 75bd 4c3d
000003d0: 9843 8a3d ded9 ca3d b1c9 55bd 71ef 9a3d
000003e0: 40bb d8bd 7564 0ebd 8b09 bebc 97f8 2fbb
000003f0: a337 4b3c bf12 a53c dc45 033e cef4 383d
0.13263121 -0.105995916 -0.13045861 -0.028328914 0.06773879 -0.09069153 -0.087306306 -0.17796813
0.011345601 0.018286513 0.104669616 -0.011972205 0.024789674 -0.081521526 0.04573292 0.15693045
-0.031346142 0.08134119 -0.037133843 0.033162378 0.0728181 0.11597096 0.069154896 0.096093394
-0.010705531 0.029028405 -0.008471325 0.040048853 -0.046163093 0.05132268 -0.06686079 -0.10306278
-0.09428724 0.07565183 0.039842017 -0.031525478 0.051120684 -0.053697605 -0.108864054 -0.045281954
-0.03182817 0.055045277 -0.0013080284 0.02896319 -0.01797313 0.04089218 -0.11530245 -0.052953057
0.013406421 -0.071465395 -0.06670406 0.118127994 -0.04903335 -0.108401485 -0.041727446 0.004383155
-0.022686567 0.06727612 -0.00024713075 -0.10314542 -0.028453251 0.02429718 -0.056883026 0.009496833
-0.10589069 0.14025305 0.041378077 0.048462626 -0.005887002 0.041734252 0.034986224 0.01938478
0.16412194 -0.12535109 0.024668345 -0.16098638 0.06291164 0.15964454 -0.11874165 -0.11698501
-0.077387735 0.028538419 -0.06070673 -0.0019022966 -0.059040364 -0.018237846 -0.047342096 -0.108424306
0.06785014 0.084643036 -0.039100777 0.018325178 -0.056712374 -0.07207587 0.022850694 -0.08462376
0.04860436 0.0795054 -0.049768362 -0.10881629 -0.050220825 0.080192134 0.007151348 0.01796539
-0.057971716 -0.10284471 -0.07708697 0.033027105 -0.007317221 -0.003107529 0.034114882 0.0639284
-0.07839135 -0.027961807 0.072843984 -0.03711056 0.00703666 -0.07339541 0.04213351 0.05030616
0.082091026 0.04610599 -0.0714874 0.1105557 -0.06849361 -0.10558069 -0.057729322 -0.026831344
0.014298115 0.05550015 -0.060152583 -0.030915007 0.0411734 0.016120236 -0.077372864 0.02598057
-0.044359073 -0.07673516 0.0054999264 -0.052080046 -0.026496433 -0.01190006 0.07861318 0.012381649
-0.042249836 0.06458306 -0.016947374 0.05049301 0.08725671 0.0027281411 0.024536353 -0.07460519
-0.03428847 -0.022746745 0.08444716 0.013546871 0.00034395824 -0.097861595 0.0010933096 -0.10614784
0.060168028 0.06968126 0.039486177 0.0695097 -0.036718074 0.041354947 -0.14628083 -0.04615152
0.03659611 0.058653656 -0.072177425 -0.12457598 -0.087448426 -0.08639896 0.16335423 -0.044949792
-0.029056752 -0.0066954824 0.044928975 0.00739749 -0.054956187 0.081923865 0.010372822 -0.078599505
0.0144462 0.11585691 -0.08234007 -0.09903302 0.018022664 -0.01605575 -0.11009614 0.0074264742
0.077996045 -0.049454946 0.092244275 0.053170096 0.009027219 -0.044145342 -0.03431413 0.010604944
0.06943287 -0.03971971 -0.042725384 0.03870159 -0.02557939 -0.08598222 -0.1275439 -0.01835176
-0.050716095 -0.03117021 -0.018331826 0.0110995285 0.016919522 0.05546325 0.005912289 -0.07512979
0.082695775 0.11829392 -0.044306204 0.07019314 -0.041265417 0.031482223 -0.05447499 0.012356598
0.10247428 0.04626103 -0.07538692 -0.091683 0.06127838 0.028251052 -0.047913946 0.030140275
-0.02097211 0.017512001 0.06274803 -0.043020938 -0.007942195 0.04983217 -0.15336278 -0.06583554
-0.114505924 0.06441444 0.10912435 0.049985368 0.06751174 0.09904836 -0.0521943 0.07565201
-0.1058259 -0.034763772 -0.02319791 -0.0026851052 0.012403402 0.02015054 0.12819618 0.04515534

fc2.bias f4 [84]
00000000: 835e 973e 1381 4bbb 2a1e dd3b 6b09 a4bd
00000010: 5984 853e ae4e b3bd af17 553c b1f1 483e
00000020: 21f2 a1bc a3da b73d 64c7 abbd edeb 80bd
00000030: 651b 683c 20f6 12bd 38a8 be3d 58ac 53bd
00000040: 6664 b23d dc65 783d 17a8 cd39 452e d13d
00000050: 207c babd 7cd9 39bd f691 853e 688e 303e
00000060: d5ce 9d3e 4f65 02bd c453 2b3d 6045 0f3e
00000070: 1a22 103d 8c38 503a de01 b53d 0517 223e
00000080: 13af 843e 08c3 17bd 6ed8 8bbc 9ed0 5e39
00000090: 0afd a53e fea0 da3e 659a 4bbd c63e a5bc
000000a0: 2479 85bd 7c80 16be 4b35 a93d 47c9 4e3e
000000b0: b1f1 aa3c e411 b83b f4d3 743e e386 dd3d
000000c0: 1585 e0bd 779e 68bc 1f10 4ebe 22b9 963d
000000d0: 7b66 38bd cf25 eebb 6b50 173e 2ae1 203e
000000e0: 95b9 3ebd 8981 3bbd 1cdb b03d 7d7c 88bd
000000f0: 01e2 bf3d 2433 e03b 9f6a 5e3d 087f 2abc
00000100: 6e62 963d 3a12 7c3e 62cf 1abe f97e 903d
00000110: 09d9 d3bc acd2 0cbd 2c46 3f3d 1c22 5d3d
00000120: d1c8 c63d b0f9 43bd fb80 1f3e c3f7 e53d
00000130: 7db2 403d 3910 223e 37ab ed3c e5ac e83d
00000140: b7fa 9f3d 19be afbd d898 af3e b6a3 2e3e
0.29564294 -0.0031052276 0.0067479806 -0.08009609 0.26077536 -0.08755241 0.013006135 0.19623448
-0.019768776 0.089772485 -0.0838764 -0.06294999 0.014166688 -0.035879254 0.09309429 -0.05167803
0.08710556 0.060644016 0.00039225884 0.10213903 -0.09105706 -0.045373425 0.26087922 0.17241824
0.30821863 -0.031834897 0.041827932 0.13991308 0.03518877 0.00079429965 0.08838247 0.15829094
0.2591482 -0.03705123 -0.017070975 0.00021249286 0.32419616 0.42700952 -0.04970779 -0.020171534
-0.06517246 -0.1469745 0.08262118 0.20193969 0.0208672 0.005617367 0.23908979 0.10816743
-0.109628834 -0.014197937 -0.20123337 0.0735953 -0.045019608 -0.0072676907 0.14776771 0.15710893
-0.046563704 -0.04577783 0.08635542 -0.06664369 0.09369279 0.006842034 0.0543009 -0.010406263
0.07342993 0.24616328 -0.15118173 0.07055468 -0.025860326 -0.0343806 0.04669778 0.053987607
0.097062714 -0.047845542 0.15576546 0.112288974 0.04704522 0.15826501 0.029012306 0.11361102
0.07811492 -0.0858118 0.34296298 0.17054638

fc3.weight f4 [10, 84]
00000000: 0a9a 91be 12f4 2dbe 767e 1bbe b502 89bd
00000010: 119b 57bc e7a3 cc3d 1df2 bebc 8c68 07be
00000020: 4655 53bd af26 183c a21f 0fbc 1f36 183d
00000030: ab3b 953e abf9 cd3d 98de ffbd 6ab6 3a3d
00000040: fd6a 8dbd abb8 69be 1914 353d e5fa 2c3e
00000050: 7ba2 64bd 3f01 b63d 4658 3b3e 2555 4d3e
00000060: 7ad8 b0bd 2697 303e 2809 2b3e 40da ffbc
00000070: 1559 c63d f966 b1bc fb69 5b3d 04e1 8abc
00000080: c4dc a3be 83a7 543e 968c 213d 5dee 93bd
00000090: 5f74 5c3e 43b1 23be bbca 173c 69a5 02be
000000a0: ece5 7bbb 7626 233d 7a1e dbbd 3df4 823d
000000b0: 56c4 e73c 9850 363e 6c43 ea3d 0dab 373e
000000c0: f883 bc3d 1326 b2bc fbb5 5d3e edc5 083d
000000d0: c15e 0a3d 1c47 263e 1373 cabc b7ca f63c
000000e0: 211b 02bb 4f3e a8bd 510e 893d c5b6 5fbd
000000f0: ee78 34be 5666 353e 60ba aa3d ec83 97bd
00000100: 2ddd 723e 8ba4 07be 75f5 03be 56f0 8a3d
00000110: 9d02 853d d5f5 e53d 6a3d 46bd f2ba 15bc
00000120: 3582 663b bb9a a3bd 928d 443e b634 e4bd
00000130: e115 463e a537 4dbc a728 3dbb 7e33 833a
00000140: 58ab d73d 2c1f 853c bf1d 453e 354a 2f3e
00000150: d419 9cbe c5b8 acbd d0d7 603e d3d9 36bc
00000160: 609c 15be 702f 923b c288 013e f9b0 91bd
00000170: 57ff 9d3d c84a cabd 2cf6 ac3d ccac 193d
00000180: b367 0d3e 0efc 153e 5de4 5dbe bda7 cbbd
00000190: 9819 9dbc d044 e53d 4b12 653d a1ce af3d
000001a0: 229f 893d b6ca 083e 0ff6 6bbe c2ac 2dbd
000001b0: d118 47be 281b 08be 1364 0abe 36c1 3c3e
000001c0: 86c3 6bbc ca88 f93c 6d82 efbc 10d9 27be
000001d0: 1cdc 2cbd b356 0abd 034f fabd c3a4 ec3d
000001e0: 2751 a7bd 1262 d5be e36b 08be c5e2 c43d
000001f0: dc97 3cbc 3152 bf3d e0bd b73d 8060 33bd
00000200: b88a b03e 0d51 8d3e 15c3 033e 7117 80bb
00000210: 59dd ac3c e446 6b3e 1609 133e 9946 af3d
00000220: 9428 6cbd 2e09 aa3d cf77 79be 83bd 7a3d
00000230: 3f77 6c3e 8f04 643b 2132 5dbc f828 483e
00000240: 90e6 b0bd eed3 58bd 5df0 99bd 67b3 8bbd
00000250: 322c 8e3c 521d 16be 2102 72bd 473d 183e
00000260: 0bab 1bbe 5fcb a5bd 1daa 843d 62a6 423e
00000270: cbee 65bd 28fc 26bd fd49 80be 382b 24bd
00000280: fbd0 09be 933f 91bd c7ed 01be d959 b4bc
00000290: e206 97be dd81 fe3d 381b f7bd 7a2e c63e
000002a0: 017d 143e d63b 78bd 1144 ddbd b81e 80bc
000002b0: 650b 9d3c 067d 493c 1508 84bd b1e5 b2bc
000002c0: 0837 cfbd 4fdd 0cbd f289 2cbe 69a3 e63d
000002d0: 7aa3 3e3a f491 0cbe f5db 8f3e 8cb2 773d
000002e0: f0e1 1fbe 14ad 38bd 3d72 d2bc 1351 a1bd
000002f0: 5987 fcbc 87f4 19bd 5b5c eb3d fb04 6fbc
00000300: 0d12 983d b6e3 f7bd b416 903d b910 53bd
00000310: d362 923d ae1f 7b3d d7ae 2fbb 614a b3bd
00000320: 8101 ab3d 27e6 d2bc ea45 81bd 7e26 df3c
00000330: 40d6 d93c 0afe ad3e 833f 113c e638 a2bd
00000340: 70d5 d83d 4c74 18bc 222d cfbd a585 ffbd
00000350: 8814 15be 782e 13bd 62bd 453c 8a5a 3fbc
00000360: e80a 84bd f1aa 1e3c a60b 0f3d c969 37bd
00000370: b364 8b3d f60d 673d 8e13 1a3e c484 e0bd
00000380: a92b 5cbd 1300 80bd 93d4 683e 0b89 1ebe
00000390: 1d78 6abd 935c ca3d 9dc5 8c3d 5f3f 74bd
000003a0: 74f7 d0bd 8f7c 7fbd 84fb 683d abba 38be
000003b0: e0bc 923e dbcf 063e 244c 0ebe a82d 8cbd
000003c0: 54c7 56bd 484e 713d 5a0d 01be 6cb9 36be
000003d0: 07ea 1a3e 9305 393d 60e3 d03d 2e82 8c3e
000003e0: 3f7b 593e dd8d 423e e920 433e 8ac0 0d3e
000003f0: 5965 173e 2654 c33d 1001 43bd af26 213d
-0.28437835 -0.16987637 -0.1518496 -0.066899695 -0.013159529 0.099921994 -0.023308808 -0.13223475
-0.051594995 0.009286567 -0.008735569 0.03716099 0.29147086 0.10057386 -0.12493628 0.04558412
-0.06905172 -0.22824351 0.04420862 0.16892584 -0.055819016 0.088869564 0.18295392 0.20052011
-0.0863504 0.17245159 0.16702712 -0.031232 0.0968496 -0.021655547 0.053567868 -0.016952999
-0.32004368 0.20767026 0.039440714 -0.072231986 0.21528767 -0.15985589 0.009264643 -0.12758411
-0.0038436605 0.0398316 -0.10699172 0.06394241 0.028291862 0.17804182 0.11438641 0.17936344
0.092048585 -0.02174667 0.21651451 0.03339188 0.03378177 0.16238064 -0.024713075 0.030125959
-0.0019852596 -0.082150094 0.06692184 -0.054617662 -0.17624256 0.1771482 0.083363295 -0.07398209
0.23717184 -0.13246362 -0.12886603 0.06784122 0.06494639 0.11228529 -0.048398413 -0.0091388095
0.0035172824 -0.07988497 0.1919463 -0.11142866 0.19344284 -0.012525474 -0.0028863342 0.0010009853
0.10530728 0.016250215 0.19249628 0.17118151 -0.30488455 -0.084336795 0.21957326 -0.011160332
-0.14610434 0.0044612214 0.12649825 -0.07113833 0.07714718 -0.09877545 0.08445391 0.037518308
0.1380909 0.14646932 -0.21669145 -0.09944103 -0.019177243 0.111947656 0.05592565 0.08584333
0.06719805 0.13358578 -0.23043083 -0.042401083 -0.1944306 -0.1329161 -0.13514738 0.18433079
-0.014389878 0.030460734 -0.029236997 -0.16391397 -0.0422021 -0.03377409 -0.122221015 0.11554863
-0.081697755 -0.41676384 -0.13322406 0.09613565 -0.0115108155 0.09341849 0.08971763 -0.0437932
0.34480834 0.276009 0.12867387 -0.0039090444 0.02110164 0.22976261 0.14358935 0.08558387
-0.057655886 0.08302532 -0.2436211 0.06121589 0.23092364 0.0034792756 -0.013500721 0.19546878
-0.08637726 -0.052936487 -0.07516549 -0.06821328 0.017355058 -0.14659622 -0.05908406 0.14867125
-0.15201966 -0.080954306 0.06477759 0.19008783 -0.056135934 -0.04076782 -0.2505645 -0.04008028
-0.13458626 -0.07092204 -0.12688361 -0.022015499 -0.2949744 0.12427113 -0.120657384 0.38707334
0.1450081 -0.06060394 -0.10803998 -0.015639648 0.019170472 0.012297874 -0.06446854 -0.021838041
-0.10117918 -0.034390744 -0.16849497 0.11261637 0.0007272285 -0.13727552 0.280975 0.06047301
-0.15613532 -0.045086935 -0.025689239 -0.07876792 -0.030826258 -0.037586715 0.11492225 -0.01458859
0.07425318 -0.12103979 0.0703558 -0.05152962 0.071477555 0.06130951 -0.0026807094 -0.08754421
0.08349896 -0.02574451 -0.06312163 0.027240034 0.02659142 0.3398288 0.00886524 -0.07921009
0.10587585 -0.009305071 -0.1011603 -0.124766625 -0.14558613 -0.035932988 0.012069078 -0.011679301
-0.06447393 0.00968431 0.03492322 -0.04477862 0.06806316 0.0564098 0.15046522 -0.10962823
-0.053752575 -0.06250014 0.2273734 -0.15481965 -0.057243455 0.098809384 0.06873629 -0.059630748
-0.10203448 -0.062374648 0.05688049 -0.18039958 0.28659725 0.13165228 -0.13896233 -0.06844646
-0.052436188 0.058912545 -0.1260275 -0.1784417 0.15128337 0.04517133 0.10199618 0.2744307
0.21238421 0.18999429 0.19055523 0.13842979 0.14784755 0.095375344 -0.047608435 0.039343532

fc3.bias f4 [10]
00000000: b59c d1bd 332a 00bf 168a 513e 6d1f 953e
00000010: c896 cd3e 23c7 43be d5c3 2d3e 80b6 f2be
00000020: cb22 e93e 4828 b0be
-0.102349676 -0.5006439 0.20462832 0.29125538 0.401541 -0.19118933 0.16969235 -0.4740486
0.45534357 -0.34405732
